model_cnn.pth (torch, 435171 bytes, 8 tensors)

conv1.weight f4 [6, 3, 5, 5]
00000000: 0af0 b73c 0ba4 2bbc b4c3 91bd b56e 503d
00000010: a19f e73d 2fc4 8abb 9752 31bd af7b 213c
00000020: 7a86 e6bb 9027 21bc f603 ee3d f475 41bd
00000030: b464 a1bd bbdd dcbc 2836 1c3d a3f4 5fbd
00000040: f185 2fbd c430 86bd 51ff 9dbb 8357 d03c
00000050: d8dd b53d 63c4 7abc 5084 b03d 2717 a8bd
00000060: 7fe9 04bd 4975 1ebe fe1b d2bc 14ff 2b3d
00000070: 387e 04be 039d cbbc e120 283d acfe bdbc
00000080: 0718 2fbc 5c66 91bd 7ab7 dabd 1926 223d
00000090: 21cb 7dbc 25f6 013d ddee c1bd bf71 c1bd
000000a0: ed2b 03bd 0744 3bbb 8027 0abd 4e16 03be
000000b0: 8516 90bd 06b5 acbc 7352 a4bd a32b 5dbd
000000c0: 55e3 0dbd 3a1c bebd ed99 15bc c6f3 f63d
000000d0: 53b5 463e 6988 033e b672 063d 720f a63d
000000e0: 6e48 683e d518 ec3d 3589 2e3e 7874 053d
000000f0: 3191 ed3c 7bd7 193e 03c3 aa3d a2e3 1a3e
00000100: cbf0 b63d ff64 493e 2b74 9b3d 7e91 d13d
00000110: dd61 9c3d 467d 873d 67ec 863d cd11 e63c
00000120: 754f 5fbd 8e9d ff3d b328 ab3d 3909 6d3d
00000130: def7 bf3d df07 093d bd75 5dbd 18ad 323e
00000140: ad5c 79bd a2e9 053e 7af4 7abd 36fd 28bd
00000150: 8d26 35bc 86d0 a93d c10d 493e 63b2 debd
00000160: 415a 0ebe 5ed8 083e 023a 843c 7ffc a03d
00000170: 254d 6b3d 9abd c3be 5a40 ee3d a8e5 703b
00000180: 8ec4 883d 952e 8fbd ec46 69be f9da f23d
00000190: 8e7b dcbc 277a 2bbc d686 ddbc 76a7 b9bd
000001a0: 965d a8bd d257 a53d d829 463d 1a27 ab3c
000001b0: 6bac 91be 37b5 f83d 4c00 fe3d 242b 903c
000001c0: 9512 48bd cc90 7fbe a87a a83c 6f52 fc3d
000001d0: a6f5 1f3e 6531 0cbe 08dc c7be 3756 2f3e
000001e0: e94b d63d 2f0e 463e 8904 95bd ca3c 83be
000001f0: f11c 1c3e b966 ebbc 4631 43bd fa7b 43bd
00000200: d35f 573d e1a6 62bc 12b5 8cbd ef92 0c3e
00000210: 2fdd 3a3c 124e e8bd 0289 d23d b231 d43d
00000220: 9fcf 7c3d ccb5 b7bb 151d 9abe ed50 273c
00000230: 1db3 823d 3f36 953e 59a6 35bc 95bd 89be
00000240: a1d2 503e 5f73 3c3d ea06 bf3d 9a57 ecbd
00000250: 6b90 84be d663 5e3e 7ebe 2cbe 636f 8ebd
00000260: a51d 0abd 85bb da3d 0026 ba3d 797f 8abc
00000270: 4415 23bd 0f28 423e caf7 a03d ac3b f93c
00000280: eac2 3a3e 4bb4 363e ef0f c03d 0994 cd3d
00000290: c4db 113e 8e09 1b3e 06f1 ad3d a469 033d
000002a0: c8e9 f13d 9c67 fa3d 84a3 453d a0fa e6bd
000002b0: f984 ccbd 0cb8 043d 986d 1e3e 7eca 863c
000002c0: 1412 81bd cb0b 70bd 8751 a8bd 4644 2cbd
000002d0: 0f2f 79bd 75c6 9c3d 399b 8d3d e3c8 f73d
000002e0: 0e9f 6dbb 5f36 d9bd a212 93bd 4955 1dbe
000002f0: 5211 02be 9c8e a2bd 3e20 a4bc bb6d 3cbe
00000300: c918 b0bd 6305 98be e1ba 44be b334 38be
00000310: e436 28be 7590 30be 8e6d 26be 4662 cbbd
00000320: cb79 023e 7cb6 303e 7fed d93d 1735 cb3d
00000330: 2a77 8f3c 2009 163e 355b 3a3e 77c7 003e
00000340: d65a cb3c d421 073e ce62 a83b ad41 b13c
00000350: a830 c6bd b14f 47be ca23 04be 8162 b43d
00000360: 9fff 503c 28c9 47be 2aab 7fbd 0f44 70bd
00000370: 6e04 9abd 7a1b c7bd 4804 b1bb 5aff 4d3c
00000380: 852d 01bc 3503 343d e0aa 06bd 3a3d a6bd
00000390: a2a8 09be d7d1 fbba 232a 5dbd 12a6 18be
000003a0: 87f0 b73d 6ac9 d43a b6c4 b93c a33a 75bc
000003b0: 07d4 03be abdb e83d 28f3 cbbc b1a8 a3bd
000003c0: 2f0f 37bd 2921 77bb 4467 c83d cba9 3f3e
000003d0: 8d53 afbc 82ef 8d3d dad7 c13d 348f 303e
000003e0: 2038 eebb 8a07 0b3e 83ff 26bd d801 73bc
000003f0: 636f 25bd d85f 2a3d c17f 963d 2bef d5bd
0.022453327 -0.010476123 -0.071174055 0.05088683 0.11309744 -0.0042348127 -0.043291654 0.009856149
-0.007035074 -0.009836093 0.11621849 -0.04723163 -0.07880536 -0.026961198 0.038137585 -0.054676663
-0.042852346 -0.0655227 -0.004821696 0.025432354 0.08880204 -0.015305611 0.086189866 -0.08207541
-0.03244924 -0.15474428 -0.025648113 0.04199131 -0.12938774 -0.024855142 0.04104698 -0.023192726
-0.010686881 -0.070996016 -0.106795266 0.039587114 -0.015490324 0.031728882 -0.09469388 -0.094455235
-0.032024313 -0.0028574483 -0.033729076 -0.12801477 -0.07035545 -0.021082412 -0.080235384 -0.053996693
-0.03464063 -0.092827275 -0.009130937 0.12058215 0.19405107 0.12845005 0.03282424 0.08108415
0.2268388 0.11528174 0.17044528 0.032581776 0.028999897 0.15023606 0.08337977 0.15125898
0.08932646 0.19667433 0.07590517 0.102328286 0.076358534 0.06615691 0.06588059 0.02808466
-0.054519136 0.12481223 0.08357372 0.057870124 0.09373449 0.033454772 -0.054067362 0.17448843
-0.060879398 0.13077405 -0.061268307 -0.041257106 -0.0110565545 0.08291726 0.19634153 -0.10873868
-0.13901617 0.13363788 0.016140942 0.0786066 0.057446618 -0.38230592 0.11633368 0.003675798
0.06678115 -0.06991307 -0.22780961 0.11858172 -0.026914384 -0.010466135 -0.027041834 -0.09065144
-0.08220975 0.08073391 0.04837975 0.020892669 -0.28451857 0.12143939 0.124024004 0.017598696
-0.048845846 -0.2495758 0.0205663 0.123204105 0.15621051 -0.13690718 -0.39035058 0.17122732
0.104636975 0.19341348 -0.07276256 -0.25632316 0.15245415 -0.028735505 -0.047654413 -0.047725655
0.05258162 -0.013833732 -0.06870474 0.13727926 0.011405273 -0.11343016 0.102800384 0.10361041
0.06172144 -0.0056063887 -0.30100313 0.010212165 0.063818194 0.2914295 -0.011087024 -0.26902452
0.20392849 0.046008464 0.09327491 -0.11540146 -0.25891432 0.21717772 -0.16869542 -0.06954839
-0.033719677 0.10680298 0.09089279 -0.016906487 -0.039815202 0.18960594 0.07859762 0.030423962
0.18238416 0.17842214 0.09378039 0.10038001 0.1424399 0.15140364 0.08493237 0.03208317
0.11812168 0.12226793 0.048251644 -0.11278272 -0.099863 0.032402083 0.15471494 0.016453978
-0.06302276 -0.058604997 -0.08218675 -0.042057298 -0.060835894 0.0765504 0.06914372 0.12098863
-0.0036258134 -0.106060736 -0.07181288 -0.15364565 -0.1270192 -0.07937357 -0.020034906 -0.18401234
-0.085984774 -0.2969161 -0.19211914 -0.17988853 -0.16427189 -0.17242606 -0.1625273 -0.099308535
0.12741773 0.17257112 0.10641002 0.099222355 0.017512877 0.14651918 0.18198855 0.1257609
0.024823587 0.13196498 0.0051387316 0.021637762 -0.09677249 -0.19463994 -0.12904277 0.08807851
0.012756257 -0.19510329 -0.062419094 -0.058658656 -0.07520376 -0.097220376 -0.0054021217 0.012573088
-0.007884388 0.04394837 -0.032877803 -0.08117147 -0.13443235 -0.0019212317 -0.053995263 -0.14907101
0.08981424 0.0016234342 0.022676807 -0.014967593 -0.12873851 0.11370023 -0.02489622 -0.0799116
-0.044692215 -0.0037708974 0.09785321 0.18717115 -0.021402145 0.06930448 0.094649985 0.17242128
-0.007269874 0.13577095 -0.04077102 -0.014831983 -0.04038943 0.04159531 0.07348586 -0.10446008

conv1.bias f4 [6]
00000000: 0d8c 55be 4494 4f3a 3eda 1e3d d688 0ebe
00000010: 3f4e 173e 8dd0 7dbc
-0.20854206 0.00079185166 0.03878235 -0.13919386 0.14775942 -0.015491617

conv2.weight f4 [16, 6, 5, 5]
00000000: fbfc 6e3e 486a c83d c6c7 0f3e bdc1 1d3e
00000010: 1d5c 8e3e bb31 0f3e 0b74 b73d 5425 373d
00000020: 2136 bf3d 02f7 f93d fbf9 383d f337 d9bd
00000030: 7717 61bd a448 8dbd 59bf a8bd 1156 643d
00000040: 30e1 19bd 0c53 56bd 3540 92bc e1c7 59bd
00000050: 7d38 1fbc 84e1 a73b 1351 9cbd 5eae 69bb
00000060: b6a7 63be e73f 88bd 5051 3dbe 848a 4fbe
00000070: 36ca 9dbc 7077 d1bd c1fa 4f3c 54f3 9c3d
00000080: daec b9bc 98ff 213d f589 483d 8850 923d
00000090: 5e8a d93d c91c 3a3e d470 95bd 3909 8d3d
000000a0: 8651 6f3d ae7a dd3d 0126 8d3e 9efe 04be
000000b0: 8bcb 83bc a090 08be b0b6 84be a136 833d
000000c0: 92e9 8cbe e5f9 19be a625 df3d dfd1 1d3d
000000d0: a4ed 963d ecda 823c cf44 503e 780d bebd
000000e0: 4f3a 5bbc ef4c 13be f769 37be c45b f7bd
000000f0: b691 00be 2a9a f6bd f3a2 4cbc 7013 eabc
00000100: f95b fa3b f0ab 8dbe 3087 66be 77b4 f6bd
00000110: a86c a8bd 5613 03be 532b 34be da01 52be
00000120: 10c4 cabd b09a c7bc 9a51 333d 6f4a 223e
00000130: da2f ff3d ac42 ba3d 47fa b73c d661 f23d
00000140: 6042 f837 f82e 893d 3b77 c33c 1163 a73d
00000150: 787c 723d e9fb 2a3d 3676 9a3d 5729 ed3d
00000160: 15e0 123c ef13 fdbb d840 ee3c 58b2 82bd
00000170: 15c2 86bd 245e 013d 9cab 62bd 86b3 7d3d
00000180: 1a51 ac3d fd31 f43c c6d7 87bd bcfa b93b
00000190: 7f64 c63c 1865 543d b077 cf3d 668a 653d
000001a0: 203e ad3d a9b1 8fbc 62f8 7fbd f5f0 8bbd
000001b0: 4a5a 7bbd c59c 71bd 24bb cd3d ba92 863d
000001c0: d049 ff3c 1a09 433d 6fd8 2b3c 2805 b7bc
000001d0: 38ce bebc 1c7a 153d d46c fe3c f76d c8bd
000001e0: 7561 80ba 276f b3bc 847a b0bd 2e45 913d
000001f0: a8f3 1dbe 7337 d83d 4674 b83d 7c01 523d
00000200: be01 cd3d 5a9b 753d b82b 183e c8ba 893c
00000210: 5a75 be3d 28df d33d 17e2 033e 9c2c 53bd
00000220: 3f7d 103d 4cf2 343d f93c 2b3c a1f8 fbbb
00000230: ea3f e0bd 5c68 743d 4087 3f3e 40c5 233d
00000240: f112 87bd 01cc e3bd aaa5 a1bc 671b e33d
00000250: 0ef2 0c3e 3540 703d 4c5f 98bd 3d94 78bd
00000260: 424b b4bd 486e e73c 6162 1d3d 7adb 9cbd
00000270: 4d3b 9fbc 4369 87bd 633c 153d 071d f73d
00000280: 66cf 62bd 2bf4 3fbd a73d 72bd 45fd b4bc
00000290: 29e1 e73d c773 47bd a5c5 3cbc 7795 27bc
000002a0: f355 a43d d234 f83d 40ee 3bbd 0b64 2cbe
000002b0: cd90 103d e056 d13d 0259 323e 9967 94be
000002c0: 7e5d 56be 2047 c1be 11e8 e1be 2869 8dbe
000002d0: 18cc ccbe 0c63 02bf 11ca e1be 1977 debe
000002e0: b411 8abe ae65 e6be 2d2d 12bf d55e d8be
000002f0: eaf9 b4be c9c3 a4bd 9389 c8be ddbb f9be
00000300: 1689 acbe 7246 6cbe 2952 073d 7807 73be
00000310: 426b abbe e73b 64be 2155 d93d da09 523e
00000320: 4f54 4e3e 869c 913e d25e 833e 1c82 033e
00000330: 8dcc 153e 99ac 393e 3f77 1f3d e571 aa3d
00000340: 3810 273d 281d 69bc 3965 9c3d 78af 80bd
00000350: b0df e33c 0eec e0bc 1699 523e 775e 46be
00000360: af42 46be dc3e 6abe 7c23 72bd b3bb 943e
00000370: 0740 c1bd 78da 5dbc 8d0f 5dbd dbba 403d
00000380: 703c 8a3e 2186 cfbd caf8 75bd ffde fbbc
00000390: 99cb 09bd 9301 e93d 73c4 ccbd b5f1 91bd
000003a0: bf9b d7bc e6b3 073e 9f77 473e 384e 08be
000003b0: 0865 11bd 1840 923d e299 2d3e 256f 393e
000003c0: 919c bfbd 540c 85bc b1d1 9a3d 503d e53d
000003d0: b1e0 843e 9e2d 4fbe 0206 823d 961f 3a3e
000003e0: 3770 083e c8b6 253e 4def d83c 574a 993d
000003f0: 51e1 fbbb cbfd e0bd b06c 96bc dec0 e43d
0.23338692 0.097858965 0.14041051 0.15405937 0.27804652 0.13983814 0.0895768 0.044713333
0.09336496 0.12205316 0.045160275 -0.106063746 -0.05495402 -0.06898621 -0.08239622 0.05574614
-0.03756827 -0.052325293 -0.017852882 -0.053169135 -0.009718058 0.005123319 -0.07632651 -0.003565691
-0.22231945 -0.066528134 -0.1848805 -0.20267683 -0.01926146 -0.10227859 0.012694062 0.07663599
-0.022695947 0.039550394 0.04895969 0.07144266 0.106220946 0.18175043 -0.07296911 0.06886525
0.058427356 0.10814415 0.27568057 -0.12987754 -0.016088268 -0.1333642 -0.2592063 0.06406904
-0.2752195 -0.15036733 0.10895853 0.038530227 0.07369545 0.01597353 0.20338748 -0.09279913
-0.013380601 -0.14384817 -0.17911516 -0.1207805 -0.12555584 -0.12041123 -0.012490022 -0.028573722
0.0076403585 -0.2767024 -0.22512507 -0.1204614 -0.082238495 -0.12800345 -0.17594652 -0.20508519
-0.09900677 -0.024365753 0.043778993 0.15848707 0.12460299 0.09094748 0.022458209 0.11835067
2.9594812e-05 0.06698412 0.023860564 0.08173192 0.059200734 0.041744146 0.07542078 0.115801506
0.008964558 -0.0077233235 0.029083654 -0.063816726 -0.06579987 0.03158392 -0.05533944 0.061938785
0.084139064 0.029808993 -0.066329524 0.005675642 0.024217842 0.051854223 0.101302505 0.05604019
0.08459115 -0.01754077 -0.062492736 -0.06833068 -0.061365403 -0.058987398 0.1004546 0.065709546
0.031163126 0.0476161 0.0104886135 -0.022341326 -0.023291692 0.036493406 0.031057753 -0.09786599
-0.000979467 -0.021903588 -0.08617118 0.07093273 -0.15424979 0.10557451 0.090065524 0.051270947
0.10010098 0.059962608 0.14860427 0.016812697 0.09299727 0.10345298 0.12879215 -0.051556215
0.035275694 0.044176385 0.010451549 -0.007689551 -0.10949691 0.059669837 0.18703938 0.039983034
-0.0659541 -0.11122895 -0.019732315 0.11089211 0.13764212 0.058654983 -0.074400514 -0.060688246
-0.08803417 0.028250828 0.0384239 -0.07659049 -0.019437457 -0.06611874 0.036434542 0.120660834
-0.05537357 -0.046863716 -0.059140828 -0.022093425 0.11322243 -0.0486944 -0.0115217315 -0.010228506
0.08024206 0.1211945 -0.04588151 -0.16835038 0.035294343 0.10221648 0.17416766 -0.2898529
-0.20934102 -0.37749577 -0.44122365 -0.2761929 -0.3999946 -0.50932384 -0.44099477 -0.4345024
-0.2696663 -0.4499945 -0.5710018 -0.4225985 -0.3534692 -0.080451556 -0.3916746 -0.4877614
-0.33698338 -0.23073748 0.03303734 -0.23733318 -0.3348027 -0.22288476 0.1061194 0.2051157
0.20149349 0.2843973 0.2565828 0.12842602 0.14628811 0.18132247 0.03893208 0.08322505
0.04078695 -0.014228143 0.07636494 -0.06283468 0.027816623 -0.02745631 0.2056621 -0.19371973
-0.19361375 -0.22875541 -0.05911587 0.29049453 -0.0943604 -0.013540857 -0.05396991 0.0470532
0.26999235 -0.10133005 -0.060051717 -0.030745981 -0.03364143 0.113772534 -0.09998407 -0.0712618
-0.026319383 0.1325222 0.19479226 -0.13311088 -0.03549674 0.07141131 0.16953233 0.18108805
-0.093560345 -0.01624123 0.07559527 0.11193335 0.25952676 -0.20232245 0.06348802 0.18176112
0.13324057 0.16183007 0.026481295 0.07484882 -0.007686772 -0.10985907 -0.018362373 0.11169599

conv2.bias f4 [16]
00000000: a902 efbe 7d78 203e e16c 253e dc33 26bd
00000010: 2041 ccbd b336 ac3e 3274 b53e f1f0 dc3d
00000020: 6329 073d de16 223d 6c09 99bd 7d7b 823d
00000030: 9f80 08be ad22 ee3e 26e7 e73b 2869 95bd
-0.46681717 0.15670963 0.16154815 -0.0405768 -0.09973359 0.33635482 0.35440212 0.107881434
0.032998454 0.03957259 -0.074725 0.0637121 -0.13330315 0.4651083 0.0070771156 -0.072954476

fc1.weight f4 [256, 400]
00000000: 038b e7be 1a20 3fbe 4e8c a7bc 61d6 1c3c
00000010: 2adf 6fbd aa9d 78be 2e71 b3bd 12c2 96bd
00000020: fa52 f53c 1f52 aa3d 2daa babd f063 143e
00000030: 67ac ae3d f91f 903d c95a 2c3d 12e3 26bd
00000040: f337 4c3d 3abd 413e 070e ec3d fabe 3a3d
00000050: f9e3 84bc 69a6 143d 097c 773d 2c9c 2bbd
00000060: 3192 dfbc dcc9 10bc 8e15 c3bd 7b3b a73d
00000070: 4221 fe3d ff16 393d f381 743d c16d e53d
00000080: d370 003e b5c6 153e 83b1 6c3e 2f03 ddbc
00000090: d1d7 283e fdd3 6b3d 59bc 633d f747 603e
000000a0: 0fb1 853a e41c c83d 9f3d 2cbd 9e8e e93c
000000b0: bf51 8ebb 767f 1fbc 62c3 663d 4e20 4dbd
000000c0: 33ad 02be 72a4 99bd f659 a5be ba46 7ebe
000000d0: 571c 0ebd edee 933d f317 30bd 6c65 41be
000000e0: 429a 51bb 22b9 563e 9a28 de3d e79b 90bb
000000f0: f1cb 6abe 7408 acbc 3234 bd3c 3873 2fbc
00000100: 3564 5b3d 40f3 6cbd 1302 1c3e 6375 33be
00000110: 9dea 16be 0794 fd3d ad07 48be f342 c03d
00000120: ec90 b6bd e409 08bc 8ea6 8a3c 66a7 8cbe
00000130: 95a2 81be a7a1 8fbe bf81 acbd 4c85 f4bd
00000140: 856c 6abe d43a 44be a1b7 54be 58c6 bbbc
00000150: 4870 aabd 4530 07bd 8af5 933d 9ca2 903d
00000160: 1bc3 bbbd a7d4 d3bd 783a 093e 8b16 4b3d
00000170: b78f c43d f6e9 403d fdea a13a c9df dd3c
00000180: 1b6f e6bd fbd2 babd 2abc 953d 85d0 2b3d
00000190: 6f3b 80bd 3d2a 28bd 5f9d f73c 915b c33c
000001a0: a31b 4b3d 3393 7f38 8221 3bbd 207c 243c
000001b0: c6d8 35bd 4811 c4bb 2b68 42bd 60a7 8bbc
000001c0: 7d01 b3bc f8ba 32bd 81d3 a53c c8a8 353d
000001d0: fd62 963c a819 6cbd 9d1f acbc ff7b 563d
000001e0: a083 2a3d e254 313d 4c36 29bb 7323 6bbc
000001f0: bd41 8abd 85dd 57be 5906 80be 957d 2ebe
00000200: a348 9f3c 3194 10bd d419 46bd b589 9abd
00000210: e934 d8bd b3ff ca3a 8f33 243d f4d2 83bd
00000220: 7494 2c3d 35dc c33d 033b 143d 1066 c53d
00000230: 77e8 40bd ef95 1bbc 9243 35bd 0cc8 d13a
00000240: d5aa 90bc fde4 67bd 0e3a 8a3d a41c 4fbd
00000250: 9d34 bdbc c78f 9d3d 267b 0d3e 5244 013e
00000260: b951 9d3d 0d71 d63d cdb3 fe3d 2a12 d3bb
00000270: 2568 733d 4e9e a43c 95dd d93d 48a0 9cbd
00000280: 39dc 07bd a12e 693e b54c 363e 2fc1 b63d
00000290: 37d3 973c fb2a 7abd 0871 f13d 7afa d33d
000002a0: f991 cc3d 6700 633d 47c1 89be 786c b0bd
000002b0: 203e 91bd 382d 17be 4430 4fbd 450a a9bb
000002c0: 95c8 003d 3ecd 5d3d fe2c b03c dfb1 debd
000002d0: 8457 aebd fd60 8ebc 4a3f 273d 0bf0 83bc
000002e0: ead1 36bd f3db c4bc e236 d33c 23ca 0a39
000002f0: 8a4b 923a 0e8a 39bd 9487 233b 67be a03d
00000300: 5e0b 27bc 9e92 203e 9005 d4bc 1894 043d
00000310: 461f a03d bbb3 8fb9 f041 803d 10eb 92bc
00000320: d52a 1f3e 26b8 093d c9ee b7bb 7a22 69bd
00000330: 2bc4 cdbc 9eb1 503e db9e d43d 852f 5fbc
00000340: 7084 3fbd de4b 683d d98c 1e3d 38a9 ff3d
00000350: 7c0b d23d 5223 11bd ac90 12bd 613f 613d
00000360: 6999 9e3b 1bd2 08be c0ad 3ebd bd55 e4bc
00000370: 3b3d a2bd 7c61 143b 9c8f 8abd 0008 a93d
00000380: 1aea 2f3e 1129 8b3d f597 2cbd b3bb 913d
00000390: a73d 623e 0afa 6a3e 8726 7cbd bd92 ddbd
000003a0: a650 aabc 2f06 963d bdb1 30be 5192 1ebd
000003b0: acbf c0bd 141a 33bd 611d 513d 9052 1abd
000003c0: e897 f4bc 2421 d03d 1f6f bd3d 18d6 0e3e
000003d0: 22ab 36bc 7e28 fd3d 4341 8a3d 91b0 2b3c
000003e0: 4256 a1bd eb6a 3e3a 6fd6 8f3d 4de4 82bc
000003f0: c283 85bc 5fac 46bd 9b88 123d 5866 2f3d
-0.45223245 -0.1866459 -0.020452645 0.009572596 -0.058562435 -0.24278894 -0.08761822 -0.07361235
0.029946793 0.083164446 -0.0911449 0.14491248 0.08528977 0.07037348 0.042078767 -0.040743895
0.049858045 0.1891984 0.11526113 0.045592286 -0.016221987 0.036291514 0.060421024 -0.041896984
-0.02729139 -0.0088371895 -0.095255956 0.08165642 0.12408687 0.045187946 0.05969424 0.112025745
0.12543039 0.14626582 0.2311459 -0.026979057 0.16488577 0.057575215 0.055599544 0.21902452
0.0010199862 0.097711354 -0.042050954 0.028510388 -0.004343241 -0.009734979 0.056338675 -0.050079636
-0.12761383 -0.075020686 -0.32295197 -0.24831668 -0.034694996 0.07223306 -0.04299159 -0.18886346
-0.0031982814 0.2096906 0.10847588 -0.0044131163 -0.2292936 -0.021000125 0.023096178 -0.010708623
0.05356236 -0.05784917 0.15235166 -0.17525248 -0.14737935 0.123817496 -0.19534178 0.093877696
-0.089143604 -0.008303139 0.016925123 -0.27471465 -0.25319353 -0.28053018 -0.084231846 -0.11939487
-0.2289296 -0.19163066 -0.20773174 -0.022921726 -0.08322197 -0.033005018 0.07224567 0.07062265
-0.09168073 -0.103432946 0.1340121 0.049582046 0.09597724 0.047098123 0.0012353357 0.027084248
-0.112516604 -0.091222726 0.0731128 0.041946907 -0.06261336 -0.041055907 0.030226408 0.023847373
0.049586903 6.0933828e-05 -0.045686252 0.010039359 -0.044396184 -0.0059835054 -0.047462624 -0.017047584
-0.021851296 -0.04363534 0.020242454 0.044350415 0.018357748 -0.057641655 -0.021011168 0.052364346
0.041629434 0.04329384 -0.0025819717 -0.0143517135 -0.0675082 -0.21080597 -0.25004843 -0.17040093
0.019443816 -0.035297576 -0.048364475 -0.07545797 -0.10556967 0.0015487581 0.040088233 -0.064367205
0.042133763 0.095634855 0.03618909 0.096386075 -0.047096696 -0.009496196 -0.044253893 0.0016005053
-0.017659584 -0.056614865 0.06749354 -0.050564423 -0.023096377 0.07693439 0.13816509 0.12623718
0.07681603 0.104707815 0.12436638 -0.0064413743 0.05942549 0.020095017 0.106379665 -0.07647759
-0.033169005 0.22771694 0.17802699 0.089235656 0.018533332 -0.061076146 0.11789137 0.10350509
0.099887796 0.055420306 -0.2690527 -0.08614439 -0.070919275 -0.14763343 -0.05058314 -0.005158695
0.03144129 0.054150812 0.021505829 -0.1087377 -0.08512786 -0.017380232 0.04083184 -0.016105672
-0.044633783 -0.024030661 0.025783006 0.00013236007 0.0011161428 -0.045297675 0.0024952637 0.07848816
-0.010195581 0.1568093 -0.025881559 0.032367796 0.07818465 -0.00027408995 0.062625766 -0.017934352
0.15543683 0.033622883 -0.005613182 -0.056917645 -0.025117954 0.20380256 0.10381862 -0.013622169
-0.04675716 0.056712978 0.03870854 0.12483448 0.10256097 -0.035434075 -0.0357825 0.054992083
0.0048400653 -0.13361399 -0.04655242 -0.027872914 -0.07921835 0.0022641113 -0.067656726 0.08253479
0.17179146 0.06794942 -0.042137105 0.07115879 0.22093831 0.22946945 -0.06156018 -0.10819004
-0.02079041 0.07325398 -0.17255302 -0.038713757 -0.094115585 -0.043726042 0.05105341 -0.037676394
-0.02985759 0.10162571 0.0924971 0.13948858 -0.0111492 0.12361239 0.06750729 0.010479108
-0.078777805 0.0007263857 0.07023322 -0.015978003 -0.016298179 -0.04850423 0.03577481 0.042822212

fc1.bias f4 [256]
00000000: 4445 833e 0780 73bd 95b9 1b3e 0798 ccbd
00000010: 3e00 14bb afe9 6e3e 2d17 893e e236 8c3e
00000020: 5c6a 9ebd ecc8 cebb defe 6a3c 675f 90bd
00000030: df22 85bd ae9b 253e c7c4 0b3d 9ed8 a13d
00000040: 4d33 993e 6d33 863e dfdd abbb 5b72 003e
00000050: 3b87 91bc 8d1c 41bd 54da 4dbd 4971 74bd
00000060: ffe1 7d3e beb7 653e 5363 4bbd ee3a 80bc
00000070: a465 b93e 2a19 8abc 5476 363c 6fb0 023f
00000080: 98bc 553d b605 cabd 530a a63b bfb4 e2bc
00000090: fdf5 923c 799f d33d 4eaf 52bd e9ee d9bd
000000a0: b8a1 523d 98ed 6dbc 5fd5 89bd 093a 56bd
000000b0: df15 96ba b614 ffbb 27b1 5bbd aa62 73be
000000c0: 006d 0c3e 2fb5 c5bc b729 ca3e c25e e93e
000000d0: 4e0b 773e cc22 82bd e4af a13e 1dc2 9d3d
000000e0: 279b a0bd 8621 0a3c 9f69 8b3e 4319 25bd
000000f0: ee75 d23e 2210 a7bb dbf5 323e 175f 213e
00000100: d806 93bd df4f 4bbd 37b9 863c 98de b4bc
00000110: b3a0 aa3d 4e47 313e b627 853e e167 003f
00000120: a511 7d3e 0842 9b3e 8612 abbd 83c7 2dbe
00000130: 24b6 e7bb 57e7 6fbd 6849 0abd 88c1 733e
00000140: 13e2 37bd 57fa 7dbc 53b4 55bd 98a1 25bd
00000150: 5ef0 b63a 6cd9 0fbc 6240 2bbd 40c8 e33c
00000160: 2504 3abd f276 45bd 785b a93e 67a5 5b3e
00000170: 7d45 be3e 7666 bd3e 2293 12be 7ade 91bd
00000180: 2676 153e 0df2 fe3c f54b d53c 1017 c63d
00000190: cc37 85be c206 debc cbfc a43e 4f63 4ebd
000001a0: b3be fc3e 2337 c9bc d3cb adbc 2a45 a5bd
000001b0: 834e af3e 2376 773e 8bd2 24be 7c38 d63e
000001c0: 8c95 a2bd cd72 993c 12c3 9abb 2852 b03d
000001d0: 40c7 ed3b ee21 3a3e a0ff 773e 41a6 60bd
000001e0: 47db b73d a50b 383c b025 e1bd aea5 fb3d
000001f0: 6d06 f53c c022 463d e0e9 17bb 4c8b 56bd
00000200: 2ecc ecbb 31ce ae3e 8043 a1be d5c8 363e
00000210: 36c1 b73e 0d1b 3ebc e098 c1bb 6d39 11bd
00000220: a839 91bd 8f69 55bd bf82 f7bc 2b5a 7b3d
00000230: 41ae 6d3d 0e74 3bbe f581 593e df7e 8f3b
00000240: b9b3 e33d 3c61 2a3e 07f0 cd3e 5c16 08bd
00000250: 0721 13bd 2d71 60bd 86f8 c13e 80dd 573c
00000260: 9801 a23c b706 463d 8fcb 3dbd 92d9 0dbd
00000270: e4ed a93e 9ae7 c7bc 2511 1ebe 98b4 afbc
00000280: bc0d 8f3e 7961 313e 21ed a93e 14e3 d4bc
00000290: 6174 95bd 121f 9fbc 1eea e1bc 8b93 c43e
000002a0: 54a3 25bd f46b fbbd b110 ffbc d1fe acbd
000002b0: d691 dc3d cbe1 84ba 0226 8ebd d6b2 093f
000002c0: 548f 8cbd 4aff c03e bb0e 6b3b 62c8 82bd
000002d0: 196e 2bbd 38d6 ff3d 0bcd a5bd 8dad dc3e
000002e0: fc7f 0dbd ab75 433d 68c5 76bd 6c0f f83e
000002f0: 3dc7 84bd 63d8 7cbc bf68 e93e c1a5 233e
00000300: 1463 2b3c 8473 0ebd c9f5 d53d 158b b1bc
00000310: 7619 e13e c14e 523e d063 d73c a8b6 2f3e
00000320: bf8a e03d 7cc2 7b3c d83f b93d dca1 12be
00000330: 1842 3d3e 632b 68bd d318 63bc d62a c83e
00000340: 0162 36bd f924 d53e 9f5f 26bd 9844 d93e
00000350: f2bd dd3e bdfc 78bd f9a4 eb3b 321f 9c3e
00000360: a2ad fcbd 7631 7f3d 7682 26bd 5bdf 88bd
00000370: 6cfd 36bd 70d5 bebe bed1 e13d b72e 85bd
00000380: 45c0 de3d 66f8 8dbd b58e 7fbc b6fa e9bc
00000390: 267b db3c 8bf8 963e 47fe e8bb 0d92 d13e
000003a0: 9546 aa3e 0460 883e f6f5 c1bc a9f4 f63e
000003b0: a804 d73c 1c22 ab3d 9293 ce3e c5fc 0b3d
000003c0: b2ea c1bc ee25 94be 4b58 bdbc 5ea6 d3ba
000003d0: fa34 85bd 270b 92bb 0bbd a73e 9d1a c6bd
000003e0: 7699 2dbe 583a d93e 137c e1bc 5711 b73e
000003f0: 1fab 1e3e 9243 893c 551e 4bbc 8b2c 6ebd
0.25638783 -0.05944827 0.15207513 -0.099899344 -0.0022583152 0.2333133 0.26775494 0.27385622
-0.0773513 -0.006310573 0.014342992 -0.070494466 -0.06500792 0.16172668 0.03412321 0.079026446
0.29921952 0.2621111 -0.005244955 0.12543623 -0.017764678 -0.04714637 -0.050257042 -0.05967835
0.24793242 0.22433373 -0.04965527 -0.0156531 0.36210358 -0.016857702 0.01113661 0.51050466
0.05218181 -0.098643705 0.0050671487 -0.027674077 0.017939562 0.10333151 -0.051436715 -0.106412716
0.05142376 -0.014521979 -0.067301504 -0.05230144 -0.001145061 -0.0077844514 -0.053635743 -0.23768106
0.13713455 -0.024134247 0.3948495 0.45580107 0.24125406 -0.06354293 0.31579506 0.0770304
-0.07842093 0.008430844 0.2722902 -0.040307295 0.41105598 -0.0050983587 0.17476599 0.1575893
-0.0717904 -0.049636718 0.01644574 -0.022078797 0.08331432 0.17312357 0.2600686 0.50158507
0.24713762 0.30323815 -0.083531424 -0.16970639 -0.0070712734 -0.058570232 -0.033761412 0.23804295
-0.044893336 -0.01550158 -0.052173924 -0.04043731 0.0013957133 -0.008779865 -0.041809447 0.027805448
-0.04541411 -0.04820914 0.33077598 0.21449815 0.3716239 0.36992234 -0.14313939 -0.07122512
0.14595851 0.031121278 0.026037196 0.096723676 -0.26019132 -0.027102832 0.32224116 -0.050387677
0.49364242 -0.024562424 -0.021215355 -0.080698326 0.34239587 0.2416616 -0.16095941 0.4183997
-0.0793868 0.0187315 -0.004722961 0.0860942 0.0072564185 0.18177006 0.24218607 -0.054846052
0.08977371 0.011233245 -0.109935164 0.1228746 0.02991029 0.048372984 -0.0023180172 -0.052378938
-0.0072264886 0.34141687 -0.3149681 0.17850049 0.35889596 -0.011603129 -0.0059081167 -0.035455156
-0.07091075 -0.05210262 -0.030213712 0.061365288 0.05802751 -0.1830599 0.21240981 0.004379138
0.11118264 0.16638654 0.4022219 -0.03322445 -0.03592017 -0.054795433 0.3788492 0.013175368
0.01977615 0.048346248 -0.046336707 -0.03463132 0.3318931 -0.024402428 -0.15436228 -0.021448418
0.27940166 0.17322339 0.33188727 -0.025987186 -0.07297588 -0.019423995 -0.027577456 0.38393816
-0.040438965 -0.1227645 -0.031135889 -0.0844704 0.107700035 -0.0010138092 -0.06940843 0.53788507
-0.06863275 0.3769477 0.0035866934 -0.06385876 -0.041853044 0.12492031 -0.080957495 0.4310116
-0.034545884 0.04771964 -0.060246855 0.48449266 -0.06483314 -0.01543245 0.45587727 0.15981199
0.010460634 -0.034778133 0.104472704 -0.021672765 0.43964738 0.20537855 0.026292711 0.17159522
0.10963964 0.015366193 0.0904538 -0.14319557 0.18482244 -0.056682 -0.013860899 0.3909518
-0.044527058 0.4162977 -0.040618535 0.42435145 0.4330898 -0.060787905 0.007191297 0.3049255
-0.12337805 0.06230303 -0.04065176 -0.06683227 -0.044675276 -0.37272215 0.11026333 -0.06503051
0.10876516 -0.06932144 -0.015597989 -0.028561931 0.02679212 0.29486498 -0.0071103903 0.4093174
0.33256975 0.26635754 -0.023676854 0.48233536 0.026247337 0.08356115 0.40346962 0.034176607
-0.023671482 -0.28935188 -0.02311339 -0.0016147604 -0.06504245 -0.004456896 0.32761416 -0.09673045
-0.16953072 0.42427325 -0.027524984 0.35755417 0.15494965 0.016755853 -0.012397368 -0.05814795

fc2.weight f4 [10, 256]
00000000: 329a f2bd f29b 29bd 8909 3a3c 4eb6 d5bc
00000010: 55c6 a6bd edbb c93d cb58 fcbd ec43 643d
00000020: 1aed 87bd 4383 f4bd 6b43 de3b 9de2 ebbc
00000030: 63e3 9f3b e6c7 bb3d ec96 8abd cba9 d3bd
00000040: f3ea 613e 89ef 0d3e a5a3 bbbc 1633 3d3e
00000050: e9f9 b5bc f68c 8bbe 5f63 61bd d4f3 8cbc
00000060: 610b c63d 63fd a73d a66f 69bc e09a 02bc
00000070: f58a 103d a3a2 5e3d ee6c 19bd 38e8 89be
00000080: 7eb9 413d cb68 d43c f252 6dbd 2937 613d
00000090: 17ed 61be 3909 bf3d 735e 6a3b 4c03 08bd
000000a0: 0d42 28bd df44 89bd 2a80 e9bd 39f9 ca3d
000000b0: 5178 a7ba 7f8b 5f3c c968 11bd 9269 063e
000000c0: d169 b7bd f401 4abd 8e6d cebe 02a7 50be
000000d0: 0513 9cbe cd32 6ebc 078b a3be def0 e1bc
000000e0: 1712 403c 7b10 8bbd 3d22 80bd fad3 0f3d
000000f0: 8747 4fbe 65f6 613d 3b2a 27be 56a2 243d
00000100: a44a c23c 4d0a 5bbd c30f 753d 0795 0dbd
00000110: 5d46 5bbe e28e a6bd 366b 21be cbdd 98be
00000120: 4a81 ec3d c666 0d3e 41ea a73a bcdd 923d
00000130: 2b6b 0cbc 6b31 1e3d 9c22 31bd 469f d83d
00000140: 7f53 52bc 2254 aebc 36df 093d 6654 aa3d
00000150: 1e18 50bd 4f79 2d3d b001 1bbe 8f8b 583c
00000160: deef 41bd b7a2 833c d31e 57be 8152 1c3d
00000170: ef04 b0be f5b9 2cbd 7743 063e bfd0 6a3c
00000180: 9716 013d bcb0 5e3d d124 c43d 34cb 81be
00000190: fdf6 273e bc29 a4bc 99ad 13be 50df db3d
000001a0: 65ac 91be cb05 37bd 2147 9e3b 53d0 c03d
000001b0: 46ca 32be d8fc 36be e21b 403e 00b2 e6bd
000001c0: 4a51 debd 194d fd3d 0140 c73c d816 353d
000001d0: 2809 d2bc d2bf 1dbd 9730 053e 168e b93b
000001e0: e7b7 cd3c b45d a23c 18e7 0b3e 25c7 82be
000001f0: 865f c33d 5fba 343d 3953 91bd e308 27bd
00000200: 8c06 eabc 3213 9e3d 1734 a0bb fa0c 8d39
00000210: dcf7 c0bd bb5f 98bd db09 6dbe 2e0a 57bd
00000220: bc6c 233d 83ed 65bd e6cb 8d3c ddd1 4abe
00000230: dac7 a73d b994 913c 7292 8e3d c08d 1c3d
00000240: 8fbf 6dbd 98b7 8bbe cf28 033e badc 79bc
00000250: 616d 8dbc 5084 473b 7603 25be 7b6d 0c3e
00000260: 24eb d0bc 9a90 793d ec30 c53c 836a 71bd
00000270: 4fe2 f4bd f227 02bc 6c62 c53d 2bd5 5cbd
00000280: 1e88 133e cb45 acbd 9553 28be 5d48 d2bd
00000290: 4ceb 413c fe35 033b dd19 3f3d 97b2 6abd
000002a0: 2f58 8cbd 5f03 61bd 7b8b bd3d c196 0f3c
000002b0: 28dd e33d 04cc 2abc cb74 5cbd 0e3f 6cbe
000002c0: ff32 c43d cdc8 07be c694 abbd bd41 c23c
000002d0: 5882 4a3d 89c9 b63d 365d 503c a301 2bbc
000002e0: a3a6 883b 37e7 fa3d a402 80bc 7b62 5cbe
000002f0: c323 d63c 42eb 503d 48c9 87be 58f8 f0bc
00000300: 5604 d73d 5829 c9bc 2290 503d b914 18bc
00000310: 2987 d33d 38fd 9d3d 2385 3abd 1acb 303e
00000320: b9a5 38be 3e87 71bd 86a6 cb3d 9726 803d
00000330: 8873 d73d 1d1f fbbc 5c39 003e 64b9 a6be
00000340: b4de 5fbd 9784 053e ba3b f1bc c83d 18be
00000350: 0d78 77bd ee75 1dbd 9db2 47be 37aa d8bd
00000360: 7e7e d8bc 3ae5 c33d c085 42bd 031b b43c
00000370: c31f c5bc 74c6 f43d 0d8b 8dbd 5908 a8bd
00000380: 5673 8c3c 6ff5 47bd 69bf 12bd e601 83bc
00000390: a6b7 693d 5f3d 94be f464 28bd 6616 9dbc
000003a0: 57ee 4fbe 7a08 bfbd fc3d f2bc df71 49be
000003b0: 940a 99bd dc69 823c 7cc0 e03d b250 4fbd
000003c0: f55b 20bd 107b ae3d 1441 013d 52cf caba
000003d0: 05f7 5939 c899 3abd fd2a 5e3e 9452 b93d
000003e0: 6085 bf3d eb9f 90be bd7a 3fbc 5314 d8bd
000003f0: 91f7 a03d b14d bd3c a5a7 9ebc 7922 8bbd
-0.11845817 -0.041408487 0.011354812 -0.026087906 -0.081432976 0.09850297 -0.123216234 0.055728838
-0.066370204 -0.11939099 0.006782939 -0.028794581 0.0048794015 0.09168987 -0.06767067 -0.1033512
0.22062282 0.13860907 -0.02290518 0.18476519 -0.022213893 -0.27255982 -0.05502641 -0.01720611
0.09670139 0.082026266 -0.0142478105 -0.007971495 0.03528877 0.05435432 -0.0374574 -0.2693498
0.04729604 0.025928875 -0.05794043 0.054984245 -0.22063099 0.09327931 0.0035761863 -0.03320627
-0.041078616 -0.06702589 -0.114013985 0.09910817 -0.0012776946 0.013644098 -0.03550032 0.1312621
-0.0895573 -0.04931827 -0.4031796 -0.20376208 -0.3048326 -0.014538479 -0.31942007 -0.027580675
0.011723063 -0.06790253 -0.062565304 0.035114266 -0.2024213 0.05516662 -0.16324703 0.040193878
0.023717232 -0.05347662 0.059829485 -0.03456595 -0.2141356 -0.081327215 -0.15763554 -0.29856715
0.115480974 0.13808736 0.0012810902 0.07171199 -0.008570473 0.038621347 -0.043245897 0.10577254
-0.01283729 -0.021280352 0.033660136 0.08316879 -0.05080425 0.042352017 -0.15137362 0.013216867
-0.047347896 0.0160688 -0.21007852 0.03816462 -0.34378764 -0.04216953 0.13111673 0.0143319955
0.031515684 0.054367766 0.09577335 -0.25350344 0.16402812 -0.020039432 -0.14421691 0.10735953
-0.2845184 -0.04468326 0.0048302566 0.09414735 -0.17459974 -0.1786989 0.18760636 -0.112644196
-0.108553484 0.12368221 0.024322512 0.04421124 -0.025639132 -0.038513012 0.13006817 0.00566269
0.025112106 0.019820072 0.13662374 -0.2554256 0.09539704 0.04412305 -0.070959516 -0.04077996
-0.028567575 0.07718505 -0.004889022 0.00026903284 -0.094222754 -0.07440134 -0.23148291 -0.052499942
0.03989862 -0.056134712 0.01730914 -0.19806619 0.081924155 0.017771112 0.06961526 0.03822112
-0.058044013 -0.27288508 0.12808536 -0.015250379 -0.01726407 0.0030443855 -0.16114601 0.13713638
-0.025502749 0.06092892 0.02407118 -0.058939468 -0.119572274 -0.007944094 0.09637913 -0.05391423
0.14407393 -0.084117495 -0.16438134 -0.102677085 0.011835884 0.0020021196 0.046655525 -0.057299223
-0.06852757 -0.054934856 0.092551194 0.00876397 0.111261666 -0.010424618 -0.05382232 -0.23070928
0.09580039 -0.13260193 -0.08377986 0.023712987 0.04944071 0.089251585 0.012717536 -0.010437402
0.0041702553 0.12251132 -0.01562626 -0.21521942 0.0261401 0.05100561 -0.26520753 -0.029415295
0.10498874 -0.024555847 0.050918706 -0.009282284 0.10328514 0.07714313 -0.045537125 0.17264977
-0.18031968 -0.058966868 0.09943871 0.062573604 0.10520083 -0.030654484 0.12521881 -0.32563317
-0.054655746 0.1303886 -0.029447425 -0.14867318 -0.060417224 -0.038442545 -0.1950173 -0.10579341
-0.026427504 0.09565206 -0.047490835 0.021985536 -0.024062997 0.119519144 -0.069112875 -0.08204717
0.01714484 -0.048818048 -0.035827074 -0.015992116 0.057059906 -0.28953072 -0.0411119 -0.01917572
-0.20305763 -0.09327789 -0.029570572 -0.19672345 -0.07472721 0.015919618 0.109742135 -0.050614066
-0.039150197 0.08519566 0.031556204 -0.0015473163 0.00020786755 -0.045556813 0.21696086 0.09048954
0.09351611 -0.28247008 -0.011686978 -0.105507515 0.078597195 0.023108335 -0.019367049 -0.067936845

fc2.bias f4 [10]
00000000: 8905 bdbe 18aa 15be b13f 88be 7ebe d73e
00000010: 33e5 793e 7b98 65bc 7c95 d53d d1b0 94bc
00000020: 798e 213e dc82 0a3e
-0.36918285 -0.14615667 -0.26611093 0.42137522 0.24403839 -0.014013405 0.104289025 -0.018150719
0.15777005 0.13526481
